…
    layers.Conv2D(64, (3, 3), activation='relu'),
    layers.MaxPooling2D((2, 2)),
    layers.Conv2D(64, (3, 3), activation='relu'),
    layers.MaxPooling2D((2, 2)),
    layers.Conv2D(64, (3, 3), activation='relu'),
    layers.MaxPooling2D((2, 2)),
    layers.Flatten(),
    layers.Dense(64, activation='relu'),
    layers.Dense(n_classes, activation='softmax'),
])
model.summary()
Model: "sequential"
_________________________________________________________________
 Layer (type)                Output Shape              Param #   
=================================================================
 conv2d (Conv2D)             (None, 254, 254, 32)      896       
                                                                 
 max_pooling2d (MaxPooling2D  (None, 127, 127, 32)     0         
 )                                                               
                                                                 
 conv2d_1 (Conv2D)           (None, 125, 125, 64)      18496     
                                                                 
 max_pooling2d_1 (MaxPooling  (None, 62, 62, 64)       0         
 2D)                                                             
                                                                 
 conv2d_2 (Conv2D)           (None, 60, 60, 64)        36928     
                                                                 
 max_pooling2d_2 (MaxPooling  (None, 30, 30, 64)       0         
 2D)                                                             
                                                                 
 conv2d_3 (Conv2D)           (None, 28, 28, 64)        36928     
                                                                 
 max_pooling2d_3 (MaxPooling  (None, 14, 14, 64)       0         
 2D)                                                             
                                                                 
 conv2d_4 (Conv2D)           (None, 12, 12, 64)        36928     
                                                                 
 max_pooling2d_4 (MaxPooling  (None, 6, 6, 64)         0         
 2D)                                                             
                                                                 
 conv2d_5 (Conv2D)           (None, 4, 4, 64)          36928     
                                                                 
 max_pooling2d_5 (MaxPooling  (None, 2, 2, 64)         0         
 2D)                                                             
                                                                 
 flatten (Flatten)           (None, 256)               0         
                                                                 
 dense (Dense)               (None, 64)                16448     
                                                                 
 dense_1 (Dense)             (None, 3)                 195       
                                                                 
=================================================================
Total params: 183,747
Trainable params: 183,747
Non-trainable params: 0
_________________________________________________________________
Let's compile the model
We use adam optimizer, SparseCategoricalCrossentropyfor losses and accuracy as a metric.

model.compile(
…
